…
I0406 09:49:02.779675   397 net.cpp:323] The NetState phase (0) differed from the phase (1) specified by a rule in layer val-data
I0406 09:49:02.779692   397 net.cpp:323] The NetState phase (0) differed from the phase (1) specified by a rule in layer accuracy
I0406 09:49:02.779834   397 net.cpp:52] Initializing net from parameters:
state {
phase: TRAIN
}
layer {
name: "train-data"
type: "Data"
top: "data"
top: "label"
include {
phase: TRAIN
}
transform_param {
mirror: true
crop_size: 227
mean_file: "/opt/DIGITS/digits/jobs/20200406-094439-20ac/mean.binaryproto"
}
data_param {
source: "/opt/DIGITS/digits/jobs/20200406-094439-20ac/train_db"
batch_size: 128
backend: LMDB
}
}
layer {
name: "conv1"
type: "Convolution"
bottom: "data"
top: "conv1"
param {
lr_mult: 1
decay_mult: 1
}
param {
lr_mult: 2
decay_mult: 0
}
convolution_param {
num_output: 96
kernel_size: 11
stride: 4
weight_filler {
type: "gaussian"
std: 0.01
}
bias_filler {
type: "constant"
value: 0
}
}
}
layer {
name: "relu1"
type: "ReLU"
bottom: "conv1"
top: "conv1"
}
layer {
name: "norm1"
type: "LRN"
bottom: "conv1"
top: "norm1"
lrn_param {
local_size: 5
alpha: 0.0001
beta: 0.75
}
}
layer {
name: "pool1"
type: "Pooling"
bottom: "norm1"
top: "pool1"
pooling_param {
pool: MAX
kernel_size: 3
stride: 2
}
}
layer {
name: "conv2"
type: "Convolution"
bottom: "pool1"
top: "conv2"
param {
lr_mult: 1
decay_mult: 1
}
param {
lr_mult: 2
decay_mult: 0
}
convolution_param {
num_output: 256
pad: 2
kernel_size: 5
group: 2
weight_filler {
type: "gaussian"
std: 0.01
}
bias_filler {
type: "constant"
value: 0.1
}
}
}
layer {
name: "relu2"
type: "ReLU"
bottom: "conv2"
top: "conv2"
}
layer {
name: "norm2"
type: "LRN"
bottom: "conv2"
top: "norm2"
lrn_param {
local_size: 5
alpha: 0.0001
beta: 0.75
}
}
layer {
name: "pool2"
type: "Pooling"
bottom: "norm2"
top: "pool2"
pooling_param {
pool: MAX
kernel_size: 3
stride: 2
}
}
layer {
name: "conv3"
type: "Convolution"
bottom: "pool2"
top: "conv3"
param {
lr_mult: 1
decay_mult: 1
}
param {
lr_mult: 2
decay_mult: 0
}
convolution_param {
num_output: 384
pad: 1
kernel_size: 3
weight_filler {
type: "gaussian"
std: 0.01
}
bias_filler {
type: "constant"
value: 0
}
}
}
layer {
name: "relu3"
type: "ReLU"
bottom: "conv3"
top: "conv3"
}
layer {
name: "conv4"
type: "Convolution"
bottom: "conv3"
top: "conv4"
param {
lr_mult: 1
decay_mult: 1
}
param {
lr_mult: 2
decay_mult: 0
}
convolution_param {
num_output: 384
pad: 1
kernel_size: 3
group: 2
weight_filler {
type: "gaussian"
std: 0.01
}
bias_filler {
type: "constant"
value: 0.1
}
}
}
layer {
name: "relu4"
type: "ReLU"
bottom: "conv4"
top: "conv4"
}
layer {
name: "conv5"
type: "Convolution"
bottom: "conv4"
top: "conv5"
param {
lr_mult: 1
decay_mult: 1
}
param {
lr_mult: 2
decay_mult: 0
}
convolution_param {
num_output: 256
pad: 1
kernel_size: 3
group: 2
weight_filler {
type: "gaussian"
std: 0.01
}
bias_filler {
type: "constant"
value: 0.1
}
}
}
layer {
name: "relu5"
type: "ReLU"
bottom: "conv5"
top: "conv5"
}
layer {
name: "pool5"
type: "Pooling"
bottom: "conv5"
top: "pool5"
pooling_param {
pool: MAX
kernel_size: 3
stride: 2
}
}
layer {
name: "fc6"
type: "InnerProduct"
bottom: "pool5"
top: "fc6"
param {
lr_mult: 1
decay_mult: 1
}
param {
lr_mult: 2
decay_mult: 0
}
inner_product_param {
num_output: 4096
weight_filler {
type: "gaussian"
std: 0.005
}
bias_filler {
type: "constant"
value: 0.1
}
}
}
layer {
name: "relu6"
type: "ReLU"
bottom: "fc6"
top: "fc6"
}
layer {
name: "drop6"
type: "Dropout"
bottom: "fc6"
top: "fc6"
dropout_param {
dropout_ratio: 0.5
}
}
layer {
name: "fc7"
type: "InnerProduct"
bottom: "fc6"
top: "fc7"
param {
lr_mult: 1
decay_mult: 1
}
param {
lr_mult: 2
decay_mult: 0
}
inner_product_param {
num_output: 4096
weight_filler {
type: "gaussian"
std: 0.005
}
bias_filler {
type: "constant"
value: 0.1
}
}
}
layer {
name: "relu7"
type: "ReLU"
bottom: "fc7"
top: "fc7"
}
layer {
name: "drop7"
type: "Dropout"
bottom: "fc7"
top: "fc7"
dropout_param {
dropout_ratio: 0.5
}
}
layer {
name: "fc8"
type: "InnerProduct"
bottom: "fc7"
top: "fc8"
param {
lr_mult: 1
decay_mult: 1
}
param {
lr_mult: 2
decay_mult: 0
}
inner_product_param {
num_output: 3
weight_filler {
type: "gaussian"
std: 0.01
}
bias_filler {
type: "constant"
value: 0
}
}
}
layer {
name: "loss"
type: "SoftmaxWithLoss"
bottom: "fc8"
bottom: "label"
top: "loss"
}
I0406 09:49:02.779944   397 layer_factory.hpp:77] Creating layer train-data
I0406 09:49:02.780467   397 net.cpp:94] Creating Layer train-data
I0406 09:49:02.780488   397 net.cpp:409] train-data -> data
I0406 09:49:02.780522   397 net.cpp:409] train-data -> label
I0406 09:49:02.780542   397 data_transformer.cpp:25] Loading mean file from: /opt/DIGITS/digits/jobs/20200406-094439-20ac/mean.binaryproto
I0406 09:49:02.781486   400 db_lmdb.cpp:35] Opened lmdb /opt/DIGITS/digits/jobs/20200406-094439-20ac/train_db
I0406 09:49:02.789168   397 data_layer.cpp:78] ReshapePrefetch 128, 3, 227, 227
I0406 09:49:02.789222   397 data_layer.cpp:83] output data size: 128,3,227,227
I0406 09:49:02.970535   397 net.cpp:144] Setting up train-data
I0406 09:49:02.970571   397 net.cpp:151] Top shape: 128 3 227 227 (19787136)
I0406 09:49:02.970578   397 net.cpp:151] Top shape: 128 (128)
I0406 09:49:02.970582   397 net.cpp:159] Memory required for data: 79149056
I0406 09:49:02.970594   397 layer_factory.hpp:77] Creating layer conv1
I0406 09:49:02.970623   397 net.cpp:94] Creating Layer conv1
I0406 09:49:02.970629   397 net.cpp:435] conv1 <- data
I0406 09:49:02.970643   397 net.cpp:409] conv1 -> conv1
I0406 09:49:02.971807   397 net.cpp:144] Setting up conv1
I0406 09:49:02.971822   397 net.cpp:151] Top shape: 128 96 55 55 (37171200)
I0406 09:49:02.971827   397 net.cpp:159] Memory required for data: 227833856
I0406 09:49:02.971844   397 layer_factory.hpp:77] Creating layer relu1
I0406 09:49:02.971853   397 net.cpp:94] Creating Layer relu1
I0406 09:49:02.971858   397 net.cpp:435] relu1 <- conv1
I0406 09:49:02.971864   397 net.cpp:396] relu1 -> conv1 (in-place)
I0406 09:49:02.971894   397 net.cpp:144] Setting up relu1
I0406 09:49:02.971901   397 net.cpp:151] Top shape: 128 96 55 55 (37171200)
I0406 09:49:02.971905   397 net.cpp:159] Memory required for data: 376518656
I0406 09:49:02.971909   397 layer_factory.hpp:77] Creating layer norm1
I0406 09:49:02.971920   397 net.cpp:94] Creating Layer norm1
I0406 09:49:02.971923   397 net.cpp:435] norm1 <- conv1
I0406 09:49:02.971958   397 net.cpp:409] norm1 -> norm1
I0406 09:49:02.972008   397 net.cpp:144] Setting up norm1
I0406 09:49:02.972018   397 net.cpp:151] Top shape: 128 96 55 55 (37171200)
I0406 09:49:02.972020   397 net.cpp:159] Memory required for data: 525203456
I0406 09:49:02.972024   397 layer_factory.hpp:77] Creating layer pool1
I0406 09:49:02.972033   397 net.cpp:94] Creating Layer pool1
I0406 09:49:02.972038   397 net.cpp:435] pool1 <- norm1
I0406 09:49:02.972044   397 net.cpp:409] pool1 -> pool1
I0406 09:49:02.972084   397 net.cpp:144] Setting up pool1
I0406 09:49:02.972090   397 net.cpp:151] Top shape: 128 96 27 27 (8957952)
I0406 09:49:02.972095   397 net.cpp:159] Memory required for data: 561035264
I0406 09:49:02.972097   397 layer_factory.hpp:77] Creating layer conv2
I0406 09:49:02.972108   397 net.cpp:94] Creating Layer conv2
I0406 09:49:02.972124   397 net.cpp:435] conv2 <- pool1
I0406 09:49:02.972132   397 net.cpp:409] conv2 -> conv2
I0406 09:49:02.984695   397 net.cpp:144] Setting up conv2
I0406 09:49:02.984720   397 net.cpp:151] Top shape: 128 256 27 27 (23887872)
I0406 09:49:02.984730   397 net.cpp:159] Memory required for data: 656586752
I0406 09:49:02.984745   397 layer_factory.hpp:77] Creating layer relu2
I0406 09:49:02.984756   397 net.cpp:94] Creating Layer relu2
I0406 09:49:02.984763   397 net.cpp:435] relu2 <- conv2
I0406 09:49:02.984774   397 net.cpp:396] relu2 -> conv2 (in-place)
I0406 09:49:02.984802   397 net.cpp:144] Setting up relu2
I0406 09:49:02.984810   397 net.cpp:151] Top shape: 128 256 27 27 (23887872)
I0406 09:49:02.984817   397 net.cpp:159] Memory required for data: 752138240
I0406 09:49:02.984822   397 layer_factory.hpp:77] Creating layer norm2
I0406 09:49:02.984835   397 net.cpp:94] Creating Layer norm2
I0406 09:49:02.984841   397 net.cpp:435] norm2 <- conv2
I0406 09:49:02.984850   397 net.cpp:409] norm2 -> norm2
I0406 09:49:02.984928   397 net.cpp:144] Setting up norm2
I0406 09:49:02.984942   397 net.cpp:151] Top shape: 128 256 27 27 (23887872)
I0406 09:49:02.984949   397 net.cpp:159] Memory required for data: 847689728
I0406 09:49:02.984956   397 layer_factory.hpp:77] Creating layer pool2
I0406 09:49:02.984968   397 net.cpp:94] Creating Layer pool2
I0406 09:49:02.984975   397 net.cpp:435] pool2 <- norm2
I0406 09:49:02.984987   397 net.cpp:409] pool2 -> pool2
I0406 09:49:02.985038   397 net.cpp:144] Setting up pool2
I0406 09:49:02.985051   397 net.cpp:151] Top shape: 128 256 13 13 (5537792)
I0406 09:49:02.985059   397 net.cpp:159] Memory required for data: 869840896
I0406 09:49:02.985066   397 layer_factory.hpp:77] Creating layer conv3
I0406 09:49:02.985081   397 net.cpp:94] Creating Layer conv3
I0406 09:49:02.985088   397 net.cpp:435] conv3 <- pool2
I0406 09:49:02.985101   397 net.cpp:409] conv3 -> conv3
I0406 09:49:03.000859   397 net.cpp:144] Setting up conv3
I0406 09:49:03.000885   397 net.cpp:151] Top shape: 128 384 13 13 (8306688)
I0406 09:49:03.000901   397 net.cpp:159] Memory required for data: 903067648
I0406 09:49:03.000917   397 layer_factory.hpp:77] Creating layer relu3
I0406 09:49:03.000931   397 net.cpp:94] Creating Layer relu3
I0406 09:49:03.000937   397 net.cpp:435] relu3 <- conv3
I0406 09:49:03.000947   397 net.cpp:396] relu3 -> conv3 (in-place)
I0406 09:49:03.000962   397 net.cpp:144] Setting up relu3
I0406 09:49:03.000973   397 net.cpp:151] Top shape: 128 384 13 13 (8306688)
I0406 09:49:03.000979   397 net.cpp:159] Memory required for data: 936294400
I0406 09:49:03.000985   397 layer_factory.hpp:77] Creating layer conv4
I0406 09:49:03.001000   397 net.cpp:94] Creating Layer conv4
I0406 09:49:03.001008   397 net.cpp:435] conv4 <- conv3
I0406 09:49:03.001020   397 net.cpp:409] conv4 -> conv4
I0406 09:49:03.012562   397 net.cpp:144] Setting up conv4
I0406 09:49:03.012583   397 net.cpp:151] Top shape: 128 384 13 13 (8306688)
I0406 09:49:03.012588   397 net.cpp:159] Memory required for data: 969521152
I0406 09:49:03.012611   397 layer_factory.hpp:77] Creating layer relu4
I0406 09:49:03.012620   397 net.cpp:94] Creating Layer relu4
I0406 09:49:03.012624   397 net.cpp:435] relu4 <- conv4
I0406 09:49:03.012652   397 net.cpp:396] relu4 -> conv4 (in-place)
I0406 09:49:03.012662   397 net.cpp:144] Setting up relu4
I0406 09:49:03.012668   397 net.cpp:151] Top shape: 128 384 13 13 (8306688)
I0406 09:49:03.012671   397 net.cpp:159] Memory required for data: 1002747904
I0406 09:49:03.012676   397 layer_factory.hpp:77] Creating layer conv5
I0406 09:49:03.012686   397 net.cpp:94] Creating Layer conv5
I0406 09:49:03.012691   397 net.cpp:435] conv5 <- conv4
I0406 09:49:03.012696   397 net.cpp:409] conv5 -> conv5
I0406 09:49:03.021581   397 net.cpp:144] Setting up conv5
I0406 09:49:03.021605   397 net.cpp:151] Top shape: 128 256 13 13 (5537792)
I0406 09:49:03.021612   397 net.cpp:159] Memory required for data: 1024899072
I0406 09:49:03.021634   397 layer_factory.hpp:77] Creating layer relu5
I0406 09:49:03.021646   397 net.cpp:94] Creating Layer relu5
I0406 09:49:03.021652   397 net.cpp:435] relu5 <- conv5
I0406 09:49:03.021662   397 net.cpp:396] relu5 -> conv5 (in-place)
I0406 09:49:03.021674   397 net.cpp:144] Setting up relu5
I0406 09:49:03.021683   397 net.cpp:151] Top shape: 128 256 13 13 (5537792)
I0406 09:49:03.021690   397 net.cpp:159] Memory required for data: 1047050240
I0406 09:49:03.021697   397 layer_factory.hpp:77] Creating layer pool5
I0406 09:49:03.021706   397 net.cpp:94] Creating Layer pool5
I0406 09:49:03.021713   397 net.cpp:435] pool5 <- conv5
I0406 09:49:03.021721   397 net.cpp:409] pool5 -> pool5
I0406 09:49:03.021817   397 net.cpp:144] Setting up pool5
I0406 09:49:03.021832   397 net.cpp:151] Top shape: 128 256 6 6 (1179648)
I0406 09:49:03.021838   397 net.cpp:159] Memory required for data: 1051768832
I0406 09:49:03.021845   397 layer_factory.hpp:77] Creating layer fc6
I0406 09:49:03.021863   397 net.cpp:94] Creating Layer fc6
I0406 09:49:03.021870   397 net.cpp:435] fc6 <- pool5
I0406 09:49:03.021880   397 net.cpp:409] fc6 -> fc6
I0406 09:49:03.731060   397 net.cpp:144] Setting up fc6
I0406 09:49:03.731091   397 net.cpp:151] Top shape: 128 4096 (524288)
I0406 09:49:03.731096   397 net.cpp:159] Memory required for data: 1053865984
I0406 09:49:03.731106   397 layer_factory.hpp:77] Creating layer relu6
I0406 09:49:03.731124   397 net.cpp:94] Creating Layer relu6
I0406 09:49:03.731130   397 net.cpp:435] relu6 <- fc6
I0406 09:49:03.731137   397 net.cpp:396] relu6 -> fc6 (in-place)
I0406 09:49:03.731151   397 net.cpp:144] Setting up relu6
I0406 09:49:03.731156   397 net.cpp:151] Top shape: 128 4096 (524288)
I0406 09:49:03.731160   397 net.cpp:159] Memory required for data: 1055963136
I0406 09:49:03.731164   397 layer_factory.hpp:77] Creating layer drop6
I0406 09:49:03.731174   397 net.cpp:94] Creating Layer drop6
I0406 09:49:03.731179   397 net.cpp:435] drop6 <- fc6
I0406 09:49:03.731184   397 net.cpp:396] drop6 -> fc6 (in-place)
I0406 09:49:03.731207   397 net.cpp:144] Setting up drop6
I0406 09:49:03.731214   397 net.cpp:151] Top shape: 128 4096 (524288)
I0406 09:49:03.731217   397 net.cpp:159] Memory required for data: 1058060288
I0406 09:49:03.731221   397 layer_factory.hpp:77] Creating layer fc7
I0406 09:49:03.731230   397 net.cpp:94] Creating Layer fc7
I0406 09:49:03.731233   397 net.cpp:435] fc7 <- fc6
I0406 09:49:03.731240   397 net.cpp:409] fc7 -> fc7
I0406 09:49:03.949252   397 net.cpp:144] Setting up fc7
I0406 09:49:03.949296   397 net.cpp:151] Top shape: 128 4096 (524288)
I0406 09:49:03.949301   397 net.cpp:159] Memory required for data: 1060157440
I0406 09:49:03.949312   397 layer_factory.hpp:77] Creating layer relu7
I0406 09:49:03.949334   397 net.cpp:94] Creating Layer relu7
I0406 09:49:03.949339   397 net.cpp:435] relu7 <- fc7
I0406 09:49:03.949347   397 net.cpp:396] relu7 -> fc7 (in-place)
I0406 09:49:03.949400   397 net.cpp:144] Setting up relu7
I0406 09:49:03.949405   397 net.cpp:151] Top shape: 128 4096 (524288)
I0406 09:49:03.949409   397 net.cpp:159] Memory required for data: 1062254592
I0406 09:49:03.949414   397 layer_factory.hpp:77] Creating layer drop7
I0406 09:49:03.949421   397 net.cpp:94] Creating Layer drop7
I0406 09:49:03.949425   397 net.cpp:435] drop7 <- fc7
I0406 09:49:03.949462   397 net.cpp:396] drop7 -> fc7 (in-place)
I0406 09:49:03.949484   397 net.cpp:144] Setting up drop7
I0406 09:49:03.949491   397 net.cpp:151] Top shape: 128 4096 (524288)
I0406 09:49:03.949494   397 net.cpp:159] Memory required for data: 1064351744
I0406 09:49:03.949497   397 layer_factory.hpp:77] Creating layer fc8
I0406 09:49:03.949506   397 net.cpp:94] Creating Layer fc8
I0406 09:49:03.949510   397 net.cpp:435] fc8 <- fc7
I0406 09:49:03.949517   397 net.cpp:409] fc8 -> fc8
I0406 09:49:03.950534   397 net.cpp:144] Setting up fc8
I0406 09:49:03.950548   397 net.cpp:151] Top shape: 128 3 (384)
I0406 09:49:03.950552   397 net.cpp:159] Memory required for data: 1064353280
I0406 09:49:03.950559   397 layer_factory.hpp:77] Creating layer loss
I0406 09:49:03.950575   397 net.cpp:94] Creating Layer loss
I0406 09:49:03.950580   397 net.cpp:435] loss <- fc8
I0406 09:49:03.950585   397 net.cpp:435] loss <- label
I0406 09:49:03.950595   397 net.cpp:409] loss -> loss
I0406 09:49:03.950646   397 layer_factory.hpp:77] Creating layer loss
…
I0406 09:49:03.951277   397 solver.cpp:181] Creating test net (#0) specified by net file: train_val.prototxt
I0406 09:49:03.951318   397 net.cpp:323] The NetState phase (1) differed from the phase (0) specified by a rule in layer train-data
I0406 09:49:03.951473   397 net.cpp:52] Initializing net from parameters:
state {
phase: TEST
}
layer {
name: "val-data"
type: "Data"
top: "data"
top: "label"
include {
phase: TEST
}
transform_param {
crop_size: 227
mean_file: "/opt/DIGITS/digits/jobs/20200406-094439-20ac/mean.binaryproto"
}
data_param {
source: "/opt/DIGITS/digits/jobs/20200406-094439-20ac/val_db"
batch_size: 32
backend: LMDB
}
}
layer {
name: "conv1"
type: "Convolution"
bottom: "data"
top: "conv1"
param {
lr_mult: 1
decay_mult: 1
}
param {
lr_mult: 2
decay_mult: 0
}
convolution_param {
num_output: 96
kernel_size: 11
stride: 4
weight_filler {
type: "gaussian"
std: 0.01
}
bias_filler {
type: "constant"
value: 0
}
}
}
layer {
name: "relu1"
type: "ReLU"
bottom: "conv1"
top: "conv1"
}
layer {
name: "norm1"
type: "LRN"
bottom: "conv1"
top: "norm1"
lrn_param {
local_size: 5
alpha: 0.0001
beta: 0.75
}
}
layer {
name: "pool1"
type: "Pooling"
bottom: "norm1"
top: "pool1"
pooling_param {
pool: MAX
kernel_size: 3
stride: 2
}
}
layer {
name: "conv2"
type: "Convolution"
bottom: "pool1"
top: "conv2"
param {
lr_mult: 1
decay_mult: 1
}
param {
lr_mult: 2
decay_mult: 0
}
convolution_param {
num_output: 256
pad: 2
kernel_size: 5
group: 2
weight_filler {
type: "gaussian"
std: 0.01
}
bias_filler {
type: "constant"
value: 0.1
}
}
}
layer {
name: "relu2"
type: "ReLU"
bottom: "conv2"
top: "conv2"
}
layer {
name: "norm2"
type: "LRN"
bottom: "conv2"
top: "norm2"
lrn_param {
local_size: 5
alpha: 0.0001
beta: 0.75
}
}
layer {
name: "pool2"
type: "Pooling"
bottom: "norm2"
top: "pool2"
pooling_param {
pool: MAX
kernel_size: 3
stride: 2
}
}
layer {
name: "conv3"
type: "Convolution"
bottom: "pool2"
top: "conv3"
param {
lr_mult: 1
decay_mult: 1
}
param {
lr_mult: 2
decay_mult: 0
}
convolution_param {
num_output: 384
pad: 1
kernel_size: 3
weight_filler {
type: "gaussian"
std: 0.01
}
bias_filler {
type: "constant"
value: 0
}
}
}
layer {
name: "relu3"
type: "ReLU"
bottom: "conv3"
top: "conv3"
}
layer {
name: "conv4"
type: "Convolution"
bottom: "conv3"
top: "conv4"
param {
lr_mult: 1
decay_mult: 1
}
param {
lr_mult: 2
decay_mult: 0
}
convolution_param {
num_output: 384
pad: 1
kernel_size: 3
group: 2
weight_filler {
type: "gaussian"
std: 0.01
}
bias_filler {
type: "constant"
value: 0.1
}
}
}
layer {
name: "relu4"
type: "ReLU"
bottom: "conv4"
top: "conv4"
}
layer {
name: "conv5"
type: "Convolution"
bottom: "conv4"
top: "conv5"
param {
lr_mult: 1
decay_mult: 1
}
param {
lr_mult: 2
decay_mult: 0
}
convolution_param {
num_output: 256
pad: 1
kernel_size: 3
group: 2
weight_filler {
type: "gaussian"
std: 0.01
}
bias_filler {
type: "constant"
value: 0.1
}
}
}
layer {
name: "relu5"
type: "ReLU"
bottom: "conv5"
top: "conv5"
}
layer {
name: "pool5"
type: "Pooling"
bottom: "conv5"
top: "pool5"
pooling_param {
pool: MAX
kernel_size: 3
stride: 2
}
}
layer {
name: "fc6"
type: "InnerProduct"
bottom: "pool5"
top: "fc6"
param {
lr_mult: 1
decay_mult: 1
}
param {
lr_mult: 2
decay_mult: 0
}
inner_product_param {
num_output: 4096
weight_filler {
type: "gaussian"
std: 0.005
}
bias_filler {
type: "constant"
value: 0.1
}
}
}
layer {
name: "relu6"
type: "ReLU"
bottom: "fc6"
top: "fc6"
}
layer {
name: "drop6"
type: "Dropout"
bottom: "fc6"
top: "fc6"
dropout_param {
dropout_ratio: 0.5
}
}
layer {
name: "fc7"
type: "InnerProduct"
bottom: "fc6"
top: "fc7"
param {
lr_mult: 1
decay_mult: 1
}
param {
lr_mult: 2
decay_mult: 0
}
inner_product_param {
num_output: 4096
weight_filler {
type: "gaussian"
std: 0.005
}
bias_filler {
type: "constant"
value: 0.1
}
}
}
layer {
name: "relu7"
type: "ReLU"
bottom: "fc7"
top: "fc7"
}
layer {
name: "drop7"
type: "Dropout"
bottom: "fc7"
top: "fc7"
dropout_param {
dropout_ratio: 0.5
}
}
layer {
name: "fc8"
type: "InnerProduct"
bottom: "fc7"
top: "fc8"
param {
lr_mult: 1
decay_mult: 1
}
param {
lr_mult: 2
decay_mult: 0
}
inner_product_param {
num_output: 3
weight_filler {
type: "gaussian"
std: 0.01
}
bias_filler {
type: "constant"
value: 0
}
}
}
layer {
name: "accuracy"
type: "Accuracy"
bottom: "fc8"
bottom: "label"
top: "accuracy"
include {
phase: TEST
}
}
layer {
name: "loss"
type: "SoftmaxWithLoss"
bottom: "fc8"
bottom: "label"
top: "loss"
}
I0406 09:49:03.951591   397 layer_factory.hpp:77] Creating layer val-data
I0406 09:49:03.951962   397 net.cpp:94] Creating Layer val-data
I0406 09:49:03.951979   397 net.cpp:409] val-data -> data
I0406 09:49:03.951989   397 net.cpp:409] val-data -> label
I0406 09:49:03.951999   397 data_transformer.cpp:25] Loading mean file from: /opt/DIGITS/digits/jobs/20200406-094439-20ac/mean.binaryproto
I0406 09:49:03.952677   406 db_lmdb.cpp:35] Opened lmdb /opt/DIGITS/digits/jobs/20200406-094439-20ac/val_db
I0406 09:49:03.960335   397 data_layer.cpp:78] ReshapePrefetch 32, 3, 227, 227
I0406 09:49:03.960382   397 data_layer.cpp:83] output data size: 32,3,227,227
I0406 09:49:04.003685   397 net.cpp:144] Setting up val-data
I0406 09:49:04.003713   397 net.cpp:151] Top shape: 32 3 227 227 (4946784)
I0406 09:49:04.003720   397 net.cpp:151] Top shape: 32 (32)
I0406 09:49:04.003724   397 net.cpp:159] Memory required for data: 19787264
I0406 09:49:04.003731   397 layer_factory.hpp:77] Creating layer label_val-data_1_split
I0406 09:49:04.003747   397 net.cpp:94] Creating Layer label_val-data_1_split
I0406 09:49:04.003752   397 net.cpp:435] label_val-data_1_split <- label
I0406 09:49:04.003762   397 net.cpp:409] label_val-data_1_split -> label_val-data_1_split_0
I0406 09:49:04.003772   397 net.cpp:409] label_val-data_1_split -> label_val-data_1_split_1
I0406 09:49:04.003851   397 net.cpp:144] Setting up label_val-data_1_split
I0406 09:49:04.003859   397 net.cpp:151] Top shape: 32 (32)
I0406 09:49:04.003862   397 net.cpp:151] Top shape: 32 (32)
I0406 09:49:04.003866   397 net.cpp:159] Memory required for data: 19787520
I0406 09:49:04.003870   397 layer_factory.hpp:77] Creating layer conv1
I0406 09:49:04.003885   397 net.cpp:94] Creating Layer conv1
I0406 09:49:04.003890   397 net.cpp:435] conv1 <- data
I0406 09:49:04.003896   397 net.cpp:409] conv1 -> conv1
I0406 09:49:04.004812   397 net.cpp:144] Setting up conv1
I0406 09:49:04.004824   397 net.cpp:151] Top shape: 32 96 55 55 (9292800)
I0406 09:49:04.004829   397 net.cpp:159] Memory required for data: 56958720
I0406 09:49:04.004840   397 layer_factory.hpp:77] Creating layer relu1
I0406 09:49:04.004848   397 net.cpp:94] Creating Layer relu1
I0406 09:49:04.004851   397 net.cpp:435] relu1 <- conv1
I0406 09:49:04.004856   397 net.cpp:396] relu1 -> conv1 (in-place)
I0406 09:49:04.004865   397 net.cpp:144] Setting up relu1
I0406 09:49:04.004870   397 net.cpp:151] Top shape: 32 96 55 55 (9292800)
I0406 09:49:04.004874   397 net.cpp:159] Memory required for data: 94129920
I0406 09:49:04.004878   397 layer_factory.hpp:77] Creating layer norm1
I0406 09:49:04.004886   397 net.cpp:94] Creating Layer norm1
I0406 09:49:04.004890   397 net.cpp:435] norm1 <- conv1
I0406 09:49:04.004896   397 net.cpp:409] norm1 -> norm1
I0406 09:49:04.005035   397 net.cpp:144] Setting up norm1
I0406 09:49:04.005043   397 net.cpp:151] Top shape: 32 96 55 55 (9292800)
I0406 09:49:04.005048   397 net.cpp:159] Memory required for data: 131301120
I0406 09:49:04.005051   397 layer_factory.hpp:77] Creating layer pool1
I0406 09:49:04.005059   397 net.cpp:94] Creating Layer pool1
I0406 09:49:04.005062   397 net.cpp:435] pool1 <- norm1
I0406 09:49:04.005069   397 net.cpp:409] pool1 -> pool1
I0406 09:49:04.005190   397 net.cpp:144] Setting up pool1
I0406 09:49:04.005199   397 net.cpp:151] Top shape: 32 96 27 27 (2239488)
I0406 09:49:04.005205   397 net.cpp:159] Memory required for data: 140259072
I0406 09:49:04.005209   397 layer_factory.hpp:77] Creating layer conv2
I0406 09:49:04.005219   397 net.cpp:94] Creating Layer conv2
I0406 09:49:04.005224   397 net.cpp:435] conv2 <- pool1
I0406 09:49:04.005231   397 net.cpp:409] conv2 -> conv2
I0406 09:49:04.011616   397 net.cpp:144] Setting up conv2
I0406 09:49:04.011674   397 net.cpp:151] Top shape: 32 256 27 27 (5971968)
I0406 09:49:04.011749   397 net.cpp:159] Memory required for data: 164146944
I0406 09:49:04.011765   397 layer_factory.hpp:77] Creating layer relu2
I0406 09:49:04.011780   397 net.cpp:94] Creating Layer relu2
I0406 09:49:04.011787   397 net.cpp:435] relu2 <- conv2
I0406 09:49:04.011798   397 net.cpp:396] relu2 -> conv2 (in-place)
I0406 09:49:04.011813   397 net.cpp:144] Setting up relu2
I0406 09:49:04.011823   397 net.cpp:151] Top shape: 32 256 27 27 (5971968)
I0406 09:49:04.011831   397 net.cpp:159] Memory required for data: 188034816
I0406 09:49:04.011837   397 layer_factory.hpp:77] Creating layer norm2
I0406 09:49:04.011850   397 net.cpp:94] Creating Layer norm2
I0406 09:49:04.011858   397 net.cpp:435] norm2 <- conv2
I0406 09:49:04.011868   397 net.cpp:409] norm2 -> norm2
I0406 09:49:04.011936   397 net.cpp:144] Setting up norm2
I0406 09:49:04.011951   397 net.cpp:151] Top shape: 32 256 27 27 (5971968)
I0406 09:49:04.011958   397 net.cpp:159] Memory required for data: 211922688
I0406 09:49:04.011966   397 layer_factory.hpp:77] Creating layer pool2
I0406 09:49:04.011977   397 net.cpp:94] Creating Layer pool2
I0406 09:49:04.011984   397 net.cpp:435] pool2 <- norm2
I0406 09:49:04.011993   397 net.cpp:409] pool2 -> pool2
I0406 09:49:04.012045   397 net.cpp:144] Setting up pool2
I0406 09:49:04.012056   397 net.cpp:151] Top shape: 32 256 13 13 (1384448)
I0406 09:49:04.012063   397 net.cpp:159] Memory required for data: 217460480
I0406 09:49:04.012068   397 layer_factory.hpp:77] Creating layer conv3
I0406 09:49:04.012081   397 net.cpp:94] Creating Layer conv3
I0406 09:49:04.012089   397 net.cpp:435] conv3 <- pool2
I0406 09:49:04.012099   397 net.cpp:409] conv3 -> conv3
I0406 09:49:04.027998   397 net.cpp:144] Setting up conv3
I0406 09:49:04.028021   397 net.cpp:151] Top shape: 32 384 13 13 (2076672)
I0406 09:49:04.028028   397 net.cpp:159] Memory required for data: 225767168
I0406 09:49:04.028055   397 layer_factory.hpp:77] Creating layer relu3
I0406 09:49:04.028065   397 net.cpp:94] Creating Layer relu3
I0406 09:49:04.028072   397 net.cpp:435] relu3 <- conv3
I0406 09:49:04.028081   397 net.cpp:396] relu3 -> conv3 (in-place)
I0406 09:49:04.028108   397 net.cpp:144] Setting up relu3
I0406 09:49:04.028116   397 net.cpp:151] Top shape: 32 384 13 13 (2076672)
I0406 09:49:04.028122   397 net.cpp:159] Memory required for data: 234073856
I0406 09:49:04.028128   397 layer_factory.hpp:77] Creating layer conv4
I0406 09:49:04.028152   397 net.cpp:94] Creating Layer conv4
I0406 09:49:04.028159   397 net.cpp:435] conv4 <- conv3
I0406 09:49:04.028170   397 net.cpp:409] conv4 -> conv4
I0406 09:49:04.041347   397 net.cpp:144] Setting up conv4
I0406 09:49:04.041369   397 net.cpp:151] Top shape: 32 384 13 13 (2076672)
I0406 09:49:04.041376   397 net.cpp:159] Memory required for data: 242380544
I0406 09:49:04.041388   397 layer_factory.hpp:77] Creating layer relu4
I0406 09:49:04.041397   397 net.cpp:94] Creating Layer relu4
I0406 09:49:04.041404   397 net.cpp:435] relu4 <- conv4
I0406 09:49:04.041414   397 net.cpp:396] relu4 -> conv4 (in-place)
I0406 09:49:04.041425   397 net.cpp:144] Setting up relu4
I0406 09:49:04.041433   397 net.cpp:151] Top shape: 32 384 13 13 (2076672)
I0406 09:49:04.041440   397 net.cpp:159] Memory required for data: 250687232
I0406 09:49:04.041445   397 layer_factory.hpp:77] Creating layer conv5
I0406 09:49:04.041466   397 net.cpp:94] Creating Layer conv5
I0406 09:49:04.041472   397 net.cpp:435] conv5 <- conv4
I0406 09:49:04.041486   397 net.cpp:409] conv5 -> conv5
I0406 09:49:04.061048   397 net.cpp:144] Setting up conv5
I0406 09:49:04.061084   397 net.cpp:151] Top shape: 32 256 13 13 (1384448)
I0406 09:49:04.061092   397 net.cpp:159] Memory required for data: 256225024
I0406 09:49:04.061116   397 layer_factory.hpp:77] Creating layer relu5
I0406 09:49:04.061132   397 net.cpp:94] Creating Layer relu5
I0406 09:49:04.061154   397 net.cpp:435] relu5 <- conv5
I0406 09:49:04.061194   397 net.cpp:396] relu5 -> conv5 (in-place)
I0406 09:49:04.061211   397 net.cpp:144] Setting up relu5
I0406 09:49:04.061220   397 net.cpp:151] Top shape: 32 256 13 13 (1384448)
I0406 09:49:04.061226   397 net.cpp:159] Memory required for data: 261762816
I0406 09:49:04.061233   397 layer_factory.hpp:77] Creating layer pool5
I0406 09:49:04.061254   397 net.cpp:94] Creating Layer pool5
I0406 09:49:04.061259   397 net.cpp:435] pool5 <- conv5
I0406 09:49:04.061269   397 net.cpp:409] pool5 -> pool5
I0406 09:49:04.061331   397 net.cpp:144] Setting up pool5
I0406 09:49:04.061342   397 net.cpp:151] Top shape: 32 256 6 6 (294912)
I0406 09:49:04.061347   397 net.cpp:159] Memory required for data: 262942464
I0406 09:49:04.061353   397 layer_factory.hpp:77] Creating layer fc6
I0406 09:49:04.061365   397 net.cpp:94] Creating Layer fc6
I0406 09:49:04.061372   397 net.cpp:435] fc6 <- pool5
I0406 09:49:04.061380   397 net.cpp:409] fc6 -> fc6
I0406 09:49:04.590859   397 net.cpp:144] Setting up fc6
I0406 09:49:04.590895   397 net.cpp:151] Top shape: 32 4096 (131072)
I0406 09:49:04.590900   397 net.cpp:159] Memory required for data: 263466752
I0406 09:49:04.590927   397 layer_factory.hpp:77] Creating layer relu6
I0406 09:49:04.590939   397 net.cpp:94] Creating Layer relu6
I0406 09:49:04.590943   397 net.cpp:435] relu6 <- fc6
I0406 09:49:04.590951   397 net.cpp:396] relu6 -> fc6 (in-place)
I0406 09:49:04.590965   397 net.cpp:144] Setting up relu6
I0406 09:49:04.590970   397 net.cpp:151] Top shape: 32 4096 (131072)
I0406 09:49:04.590973   397 net.cpp:159] Memory required for data: 263991040
I0406 09:49:04.590977   397 layer_factory.hpp:77] Creating layer drop6
I0406 09:49:04.590984   397 net.cpp:94] Creating Layer drop6
I0406 09:49:04.590988   397 net.cpp:435] drop6 <- fc6
I0406 09:49:04.590993   397 net.cpp:396] drop6 -> fc6 (in-place)
I0406 09:49:04.591019   397 net.cpp:144] Setting up drop6
I0406 09:49:04.591025   397 net.cpp:151] Top shape: 32 4096 (131072)
I0406 09:49:04.591029   397 net.cpp:159] Memory required for data: 264515328
I0406 09:49:04.591033   397 layer_factory.hpp:77] Creating layer fc7
I0406 09:49:04.591042   397 net.cpp:94] Creating Layer fc7
I0406 09:49:04.591044   397 net.cpp:435] fc7 <- fc6
I0406 09:49:04.591051   397 net.cpp:409] fc7 -> fc7
I0406 09:49:04.807205   397 net.cpp:144] Setting up fc7
I0406 09:49:04.807242   397 net.cpp:151] Top shape: 32 4096 (131072)
I0406 09:49:04.807247   397 net.cpp:159] Memory required for data: 265039616
I0406 09:49:04.807258   397 layer_factory.hpp:77] Creating layer relu7
I0406 09:49:04.807268   397 net.cpp:94] Creating Layer relu7
I0406 09:49:04.807273   397 net.cpp:435] relu7 <- fc7
I0406 09:49:04.807281   397 net.cpp:396] relu7 -> fc7 (in-place)
I0406 09:49:04.807296   397 net.cpp:144] Setting up relu7
I0406 09:49:04.807301   397 net.cpp:151] Top shape: 32 4096 (131072)
I0406 09:49:04.807304   397 net.cpp:159] Memory required for data: 265563904
I0406 09:49:04.807308   397 layer_factory.hpp:77] Creating layer drop7
I0406 09:49:04.807315   397 net.cpp:94] Creating Layer drop7
I0406 09:49:04.807319   397 net.cpp:435] drop7 <- fc7
I0406 09:49:04.807325   397 net.cpp:396] drop7 -> fc7 (in-place)
I0406 09:49:04.807353   397 net.cpp:144] Setting up drop7
I0406 09:49:04.807358   397 net.cpp:151] Top shape: 32 4096 (131072)
I0406 09:49:04.807363   397 net.cpp:159] Memory required for data: 266088192
I0406 09:49:04.807365   397 layer_factory.hpp:77] Creating layer fc8
I0406 09:49:04.807374   397 net.cpp:94] Creating Layer fc8
I0406 09:49:04.807379   397 net.cpp:435] fc8 <- fc7
I0406 09:49:04.807384   397 net.cpp:409] fc8 -> fc8
I0406 09:49:04.807616   397 net.cpp:144] Setting up fc8
I0406 09:49:04.807626   397 net.cpp:151] Top shape: 32 3 (96)
I0406 09:49:04.807628   397 net.cpp:159] Memory required for data: 266088576
I0406 09:49:04.807634   397 layer_factory.hpp:77] Creating layer fc8_fc8_0_split
I0406 09:49:04.807641   397 net.cpp:94] Creating Layer fc8_fc8_0_split
I0406 09:49:04.807646   397 net.cpp:435] fc8_fc8_0_split <- fc8
I0406 09:49:04.807651   397 net.cpp:409] fc8_fc8_0_split -> fc8_fc8_0_split_0
I0406 09:49:04.807708   397 net.cpp:409] fc8_fc8_0_split -> fc8_fc8_0_split_1
I0406 09:49:04.807744   397 net.cpp:144] Setting up fc8_fc8_0_split
I0406 09:49:04.807750   397 net.cpp:151] Top shape: 32 3 (96)
I0406 09:49:04.807754   397 net.cpp:151] Top shape: 32 3 (96)
I0406 09:49:04.807757   397 net.cpp:159] Memory required for data: 266089344
I0406 09:49:04.807761   397 layer_factory.hpp:77] Creating layer accuracy
I0406 09:49:04.807770   397 net.cpp:94] Creating Layer accuracy
I0406 09:49:04.807773   397 net.cpp:435] accuracy <- fc8_fc8_0_split_0
I0406 09:49:04.807778   397 net.cpp:435] accuracy <- label_val-data_1_split_0
I0406 09:49:04.807785   397 net.cpp:409] accuracy -> accuracy
…
