…
I0406 10:23:48.345010   604 net.cpp:323] The NetState phase (0) differed from the phase (1) specified by a rule in layer val-data
I0406 10:23:48.345024   604 net.cpp:323] The NetState phase (0) differed from the phase (1) specified by a rule in layer accuracy
I0406 10:23:48.345094   604 net.cpp:52] Initializing net from parameters:
state {
phase: TRAIN
}
layer {
name: "train-data"
type: "Data"
top: "data"
top: "label"
include {
phase: TRAIN
}
transform_param {
mean_file: "/opt/DIGITS/digits/jobs/20200406-092658-e59f/mean.binaryproto"
}
data_param {
source: "/opt/DIGITS/digits/jobs/20200406-092658-e59f/train_db"
batch_size: 64
backend: LMDB
}
}
layer {
name: "scale"
type: "Power"
bottom: "data"
top: "scaled"
power_param {
scale: 0.0125
}
}
layer {
name: "conv1"
type: "Convolution"
bottom: "scaled"
top: "conv1"
param {
lr_mult: 1
}
param {
lr_mult: 2
}
convolution_param {
num_output: 20
kernel_size: 5
stride: 1
weight_filler {
type: "xavier"
}
bias_filler {
type: "constant"
}
}
}
layer {
name: "pool1"
type: "Pooling"
bottom: "conv1"
top: "pool1"
pooling_param {
pool: MAX
kernel_size: 2
stride: 2
}
}
layer {
name: "conv2"
type: "Convolution"
bottom: "pool1"
top: "conv2"
param {
lr_mult: 1
}
param {
lr_mult: 2
}
convolution_param {
num_output: 50
kernel_size: 5
stride: 1
weight_filler {
type: "xavier"
}
bias_filler {
type: "constant"
}
}
}
layer {
name: "pool2"
type: "Pooling"
bottom: "conv2"
top: "pool2"
pooling_param {
pool: MAX
kernel_size: 2
stride: 2
}
}
layer {
name: "ip1"
type: "InnerProduct"
bottom: "pool2"
top: "ip1"
param {
lr_mult: 1
}
param {
lr_mult: 2
}
inner_product_param {
num_output: 500
weight_filler {
type: "xavier"
}
bias_filler {
type: "constant"
}
}
}
layer {
name: "relu1"
type: "ReLU"
bottom: "ip1"
top: "ip1"
}
layer {
name: "ip2"
type: "InnerProduct"
bottom: "ip1"
top: "ip2"
param {
lr_mult: 1
}
param {
lr_mult: 2
}
inner_product_param {
num_output: 43
weight_filler {
type: "xavier"
}
bias_filler {
type: "constant"
}
}
}
layer {
name: "loss"
type: "SoftmaxWithLoss"
bottom: "ip2"
bottom: "label"
top: "loss"
}
I0406 10:23:48.345162   604 layer_factory.hpp:77] Creating layer train-data
I0406 10:23:48.345786   604 net.cpp:94] Creating Layer train-data
I0406 10:23:48.345809   604 net.cpp:409] train-data -> data
I0406 10:23:48.345842   604 net.cpp:409] train-data -> label
I0406 10:23:48.345860   604 data_transformer.cpp:25] Loading mean file from: /opt/DIGITS/digits/jobs/20200406-092658-e59f/mean.binaryproto
I0406 10:23:48.347127   607 db_lmdb.cpp:35] Opened lmdb /opt/DIGITS/digits/jobs/20200406-092658-e59f/train_db
I0406 10:23:48.347687   604 data_layer.cpp:78] ReshapePrefetch 64, 1, 28, 28
I0406 10:23:48.347754   604 data_layer.cpp:83] output data size: 64,1,28,28
I0406 10:23:48.348362   604 net.cpp:144] Setting up train-data
I0406 10:23:48.348381   604 net.cpp:151] Top shape: 64 1 28 28 (50176)
I0406 10:23:48.348407   604 net.cpp:151] Top shape: 64 (64)
I0406 10:23:48.348412   604 net.cpp:159] Memory required for data: 200960
I0406 10:23:48.348419   604 layer_factory.hpp:77] Creating layer scale
I0406 10:23:48.348429   604 net.cpp:94] Creating Layer scale
I0406 10:23:48.348435   604 net.cpp:435] scale <- data
I0406 10:23:48.348445   604 net.cpp:409] scale -> scaled
I0406 10:23:48.348560   604 net.cpp:144] Setting up scale
I0406 10:23:48.348572   604 net.cpp:151] Top shape: 64 1 28 28 (50176)
I0406 10:23:48.348575   604 net.cpp:159] Memory required for data: 401664
I0406 10:23:48.348579   604 layer_factory.hpp:77] Creating layer conv1
I0406 10:23:48.348595   604 net.cpp:94] Creating Layer conv1
I0406 10:23:48.348599   604 net.cpp:435] conv1 <- scaled
I0406 10:23:48.348605   604 net.cpp:409] conv1 -> conv1
I0406 10:23:48.348884   604 net.cpp:144] Setting up conv1
I0406 10:23:48.348896   604 net.cpp:151] Top shape: 64 20 24 24 (737280)
I0406 10:23:48.348899   604 net.cpp:159] Memory required for data: 3350784
I0406 10:23:48.348914   604 layer_factory.hpp:77] Creating layer pool1
I0406 10:23:48.348922   604 net.cpp:94] Creating Layer pool1
I0406 10:23:48.348925   604 net.cpp:435] pool1 <- conv1
I0406 10:23:48.348930   604 net.cpp:409] pool1 -> pool1
I0406 10:23:48.348970   604 net.cpp:144] Setting up pool1
I0406 10:23:48.348978   604 net.cpp:151] Top shape: 64 20 12 12 (184320)
I0406 10:23:48.348980   604 net.cpp:159] Memory required for data: 4088064
I0406 10:23:48.348984   604 layer_factory.hpp:77] Creating layer conv2
I0406 10:23:48.348991   604 net.cpp:94] Creating Layer conv2
I0406 10:23:48.348995   604 net.cpp:435] conv2 <- pool1
I0406 10:23:48.349000   604 net.cpp:409] conv2 -> conv2
I0406 10:23:48.349542   604 net.cpp:144] Setting up conv2
I0406 10:23:48.349553   604 net.cpp:151] Top shape: 64 50 8 8 (204800)
I0406 10:23:48.349557   604 net.cpp:159] Memory required for data: 4907264
I0406 10:23:48.349565   604 layer_factory.hpp:77] Creating layer pool2
I0406 10:23:48.349571   604 net.cpp:94] Creating Layer pool2
I0406 10:23:48.349575   604 net.cpp:435] pool2 <- conv2
I0406 10:23:48.349581   604 net.cpp:409] pool2 -> pool2
I0406 10:23:48.349649   604 net.cpp:144] Setting up pool2
I0406 10:23:48.349658   604 net.cpp:151] Top shape: 64 50 4 4 (51200)
I0406 10:23:48.349660   604 net.cpp:159] Memory required for data: 5112064
I0406 10:23:48.349664   604 layer_factory.hpp:77] Creating layer ip1
I0406 10:23:48.349673   604 net.cpp:94] Creating Layer ip1
I0406 10:23:48.349676   604 net.cpp:435] ip1 <- pool2
I0406 10:23:48.349681   604 net.cpp:409] ip1 -> ip1
I0406 10:23:48.354811   604 net.cpp:144] Setting up ip1
I0406 10:23:48.354846   604 net.cpp:151] Top shape: 64 500 (32000)
I0406 10:23:48.354852   604 net.cpp:159] Memory required for data: 5240064
I0406 10:23:48.354866   604 layer_factory.hpp:77] Creating layer relu1
I0406 10:23:48.354877   604 net.cpp:94] Creating Layer relu1
I0406 10:23:48.354883   604 net.cpp:435] relu1 <- ip1
I0406 10:23:48.354895   604 net.cpp:396] relu1 -> ip1 (in-place)
I0406 10:23:48.354916   604 net.cpp:144] Setting up relu1
I0406 10:23:48.354925   604 net.cpp:151] Top shape: 64 500 (32000)
I0406 10:23:48.354930   604 net.cpp:159] Memory required for data: 5368064
I0406 10:23:48.354935   604 layer_factory.hpp:77] Creating layer ip2
I0406 10:23:48.354948   604 net.cpp:94] Creating Layer ip2
I0406 10:23:48.354952   604 net.cpp:435] ip2 <- ip1
I0406 10:23:48.354961   604 net.cpp:409] ip2 -> ip2
I0406 10:23:48.355409   604 net.cpp:144] Setting up ip2
I0406 10:23:48.355424   604 net.cpp:151] Top shape: 64 43 (2752)
I0406 10:23:48.355432   604 net.cpp:159] Memory required for data: 5379072
I0406 10:23:48.355440   604 layer_factory.hpp:77] Creating layer loss
I0406 10:23:48.355463   604 net.cpp:94] Creating Layer loss
I0406 10:23:48.355470   604 net.cpp:435] loss <- ip2
I0406 10:23:48.355477   604 net.cpp:435] loss <- label
I0406 10:23:48.355487   604 net.cpp:409] loss -> loss
I0406 10:23:48.355500   604 layer_factory.hpp:77] Creating layer loss
…
I0406 10:23:48.356084   604 solver.cpp:181] Creating test net (#0) specified by net file: train_val.prototxt
I0406 10:23:48.356122   604 net.cpp:323] The NetState phase (1) differed from the phase (0) specified by a rule in layer train-data
I0406 10:23:48.356241   604 net.cpp:52] Initializing net from parameters:
state {
phase: TEST
}
layer {
name: "val-data"
type: "Data"
top: "data"
top: "label"
include {
phase: TEST
}
transform_param {
mean_file: "/opt/DIGITS/digits/jobs/20200406-092658-e59f/mean.binaryproto"
}
data_param {
source: "/opt/DIGITS/digits/jobs/20200406-092658-e59f/val_db"
batch_size: 32
backend: LMDB
}
}
layer {
name: "scale"
type: "Power"
bottom: "data"
top: "scaled"
power_param {
scale: 0.0125
}
}
layer {
name: "conv1"
type: "Convolution"
bottom: "scaled"
top: "conv1"
param {
lr_mult: 1
}
param {
lr_mult: 2
}
convolution_param {
num_output: 20
kernel_size: 5
stride: 1
weight_filler {
type: "xavier"
}
bias_filler {
type: "constant"
}
}
}
layer {
name: "pool1"
type: "Pooling"
bottom: "conv1"
top: "pool1"
pooling_param {
pool: MAX
kernel_size: 2
stride: 2
}
}
layer {
name: "conv2"
type: "Convolution"
bottom: "pool1"
top: "conv2"
param {
lr_mult: 1
}
param {
lr_mult: 2
}
convolution_param {
num_output: 50
kernel_size: 5
stride: 1
weight_filler {
type: "xavier"
}
bias_filler {
type: "constant"
}
}
}
layer {
name: "pool2"
type: "Pooling"
bottom: "conv2"
top: "pool2"
pooling_param {
pool: MAX
kernel_size: 2
stride: 2
}
}
layer {
name: "ip1"
type: "InnerProduct"
bottom: "pool2"
top: "ip1"
param {
lr_mult: 1
}
param {
lr_mult: 2
}
inner_product_param {
num_output: 500
weight_filler {
type: "xavier"
}
bias_filler {
type: "constant"
}
}
}
layer {
name: "relu1"
type: "ReLU"
bottom: "ip1"
top: "ip1"
}
layer {
name: "ip2"
type: "InnerProduct"
bottom: "ip1"
top: "ip2"
param {
lr_mult: 1
}
param {
lr_mult: 2
}
inner_product_param {
num_output: 43
weight_filler {
type: "xavier"
}
bias_filler {
type: "constant"
}
}
}
layer {
name: "accuracy"
type: "Accuracy"
bottom: "ip2"
bottom: "label"
top: "accuracy"
include {
phase: TEST
}
}
layer {
name: "loss"
type: "SoftmaxWithLoss"
bottom: "ip2"
bottom: "label"
top: "loss"
}
I0406 10:23:48.356355   604 layer_factory.hpp:77] Creating layer val-data
I0406 10:23:48.356644   604 net.cpp:94] Creating Layer val-data
I0406 10:23:48.356667   604 net.cpp:409] val-data -> data
I0406 10:23:48.356679   604 net.cpp:409] val-data -> label
I0406 10:23:48.356691   604 data_transformer.cpp:25] Loading mean file from: /opt/DIGITS/digits/jobs/20200406-092658-e59f/mean.binaryproto
I0406 10:23:48.357419   613 db_lmdb.cpp:35] Opened lmdb /opt/DIGITS/digits/jobs/20200406-092658-e59f/val_db
I0406 10:23:48.358712   604 data_layer.cpp:78] ReshapePrefetch 32, 1, 28, 28
I0406 10:23:48.358788   604 data_layer.cpp:83] output data size: 32,1,28,28
I0406 10:23:48.359961   604 net.cpp:144] Setting up val-data
I0406 10:23:48.359975   604 net.cpp:151] Top shape: 32 1 28 28 (25088)
I0406 10:23:48.359980   604 net.cpp:151] Top shape: 32 (32)
I0406 10:23:48.359983   604 net.cpp:159] Memory required for data: 100480
I0406 10:23:48.359987   604 layer_factory.hpp:77] Creating layer label_val-data_1_split
I0406 10:23:48.359997   604 net.cpp:94] Creating Layer label_val-data_1_split
I0406 10:23:48.360000   604 net.cpp:435] label_val-data_1_split <- label
I0406 10:23:48.360005   604 net.cpp:409] label_val-data_1_split -> label_val-data_1_split_0
I0406 10:23:48.360013   604 net.cpp:409] label_val-data_1_split -> label_val-data_1_split_1
I0406 10:23:48.360055   604 net.cpp:144] Setting up label_val-data_1_split
I0406 10:23:48.360061   604 net.cpp:151] Top shape: 32 (32)
I0406 10:23:48.360065   604 net.cpp:151] Top shape: 32 (32)
I0406 10:23:48.360067   604 net.cpp:159] Memory required for data: 100736
I0406 10:23:48.360070   604 layer_factory.hpp:77] Creating layer scale
I0406 10:23:48.360080   604 net.cpp:94] Creating Layer scale
I0406 10:23:48.360083   604 net.cpp:435] scale <- data
I0406 10:23:48.360088   604 net.cpp:409] scale -> scaled
I0406 10:23:48.360111   604 net.cpp:144] Setting up scale
I0406 10:23:48.360118   604 net.cpp:151] Top shape: 32 1 28 28 (25088)
I0406 10:23:48.360121   604 net.cpp:159] Memory required for data: 201088
I0406 10:23:48.360124   604 layer_factory.hpp:77] Creating layer conv1
I0406 10:23:48.360134   604 net.cpp:94] Creating Layer conv1
I0406 10:23:48.360138   604 net.cpp:435] conv1 <- scaled
I0406 10:23:48.360143   604 net.cpp:409] conv1 -> conv1
I0406 10:23:48.360342   604 net.cpp:144] Setting up conv1
I0406 10:23:48.360350   604 net.cpp:151] Top shape: 32 20 24 24 (368640)
I0406 10:23:48.360353   604 net.cpp:159] Memory required for data: 1675648
I0406 10:23:48.360363   604 layer_factory.hpp:77] Creating layer pool1
I0406 10:23:48.360379   604 net.cpp:94] Creating Layer pool1
I0406 10:23:48.360383   604 net.cpp:435] pool1 <- conv1
I0406 10:23:48.360388   604 net.cpp:409] pool1 -> pool1
I0406 10:23:48.360445   604 net.cpp:144] Setting up pool1
I0406 10:23:48.360450   604 net.cpp:151] Top shape: 32 20 12 12 (92160)
I0406 10:23:48.360453   604 net.cpp:159] Memory required for data: 2044288
I0406 10:23:48.360456   604 layer_factory.hpp:77] Creating layer conv2
I0406 10:23:48.360466   604 net.cpp:94] Creating Layer conv2
I0406 10:23:48.360469   604 net.cpp:435] conv2 <- pool1
I0406 10:23:48.360476   604 net.cpp:409] conv2 -> conv2
I0406 10:23:48.360878   604 net.cpp:144] Setting up conv2
I0406 10:23:48.360888   604 net.cpp:151] Top shape: 32 50 8 8 (102400)
I0406 10:23:48.360906   604 net.cpp:159] Memory required for data: 2453888
I0406 10:23:48.360913   604 layer_factory.hpp:77] Creating layer pool2
I0406 10:23:48.360921   604 net.cpp:94] Creating Layer pool2
I0406 10:23:48.360925   604 net.cpp:435] pool2 <- conv2
I0406 10:23:48.360930   604 net.cpp:409] pool2 -> pool2
I0406 10:23:48.360967   604 net.cpp:144] Setting up pool2
I0406 10:23:48.360975   604 net.cpp:151] Top shape: 32 50 4 4 (25600)
I0406 10:23:48.360977   604 net.cpp:159] Memory required for data: 2556288
I0406 10:23:48.360980   604 layer_factory.hpp:77] Creating layer ip1
I0406 10:23:48.360988   604 net.cpp:94] Creating Layer ip1
I0406 10:23:48.360992   604 net.cpp:435] ip1 <- pool2
I0406 10:23:48.360997   604 net.cpp:409] ip1 -> ip1
I0406 10:23:48.365343   604 net.cpp:144] Setting up ip1
I0406 10:23:48.365393   604 net.cpp:151] Top shape: 32 500 (16000)
I0406 10:23:48.365399   604 net.cpp:159] Memory required for data: 2620288
I0406 10:23:48.365413   604 layer_factory.hpp:77] Creating layer relu1
I0406 10:23:48.365429   604 net.cpp:94] Creating Layer relu1
I0406 10:23:48.365435   604 net.cpp:435] relu1 <- ip1
I0406 10:23:48.365444   604 net.cpp:396] relu1 -> ip1 (in-place)
I0406 10:23:48.365492   604 net.cpp:144] Setting up relu1
I0406 10:23:48.365501   604 net.cpp:151] Top shape: 32 500 (16000)
I0406 10:23:48.365505   604 net.cpp:159] Memory required for data: 2684288
I0406 10:23:48.365511   604 layer_factory.hpp:77] Creating layer ip2
I0406 10:23:48.365528   604 net.cpp:94] Creating Layer ip2
I0406 10:23:48.365535   604 net.cpp:435] ip2 <- ip1
I0406 10:23:48.365543   604 net.cpp:409] ip2 -> ip2
I0406 10:23:48.365969   604 net.cpp:144] Setting up ip2
I0406 10:23:48.365984   604 net.cpp:151] Top shape: 32 43 (1376)
I0406 10:23:48.365989   604 net.cpp:159] Memory required for data: 2689792
I0406 10:23:48.365998   604 layer_factory.hpp:77] Creating layer ip2_ip2_0_split
I0406 10:23:48.366011   604 net.cpp:94] Creating Layer ip2_ip2_0_split
I0406 10:23:48.366017   604 net.cpp:435] ip2_ip2_0_split <- ip2
I0406 10:23:48.366026   604 net.cpp:409] ip2_ip2_0_split -> ip2_ip2_0_split_0
I0406 10:23:48.366051   604 net.cpp:409] ip2_ip2_0_split -> ip2_ip2_0_split_1
I0406 10:23:48.366117   604 net.cpp:144] Setting up ip2_ip2_0_split
I0406 10:23:48.366127   604 net.cpp:151] Top shape: 32 43 (1376)
I0406 10:23:48.366133   604 net.cpp:151] Top shape: 32 43 (1376)
I0406 10:23:48.366137   604 net.cpp:159] Memory required for data: 2700800
I0406 10:23:48.366143   604 layer_factory.hpp:77] Creating layer accuracy
I0406 10:23:48.366176   604 net.cpp:94] Creating Layer accuracy
I0406 10:23:48.366183   604 net.cpp:435] accuracy <- ip2_ip2_0_split_0
I0406 10:23:48.366190   604 net.cpp:435] accuracy <- label_val-data_1_split_0
I0406 10:23:48.366214   604 net.cpp:409] accuracy -> accuracy
…
